…
  12 115 147  84 163  17 167 122 143  30 107 142  25  48 119 166  91 141
  81   1 162   8  62  80 145  69 124  75   0  36 151   5  33  88 149  34
 160  97  85  61 146   9 173 156 108  46 131 168  73 137  39 155 157  29
  51  53  27   2 164 159 138 104 165  32  43  35   3  67  24 125  44 118
 129  93 111  11  40  18  41  79 152  71  13  31  70 121]
Channel_AE(
  (enc): ENC_TurboCode()
  (dec): DEC_LargeCNN(
    (interleaver): Interleaver()
    (deinterleaver): DeInterleaver()
    (dec1_cnns): ModuleList(
      (0): DataParallel(
        (module): DenseSameShapeConv1d(
          (cnns): ModuleList(
            (0): Conv1d(7, 100, kernel_size=(5,), stride=(1,), padding=(2,))
            (1): Conv1d(107, 100, kernel_size=(5,), stride=(1,), padding=(2,))
            (2): Conv1d(207, 100, kernel_size=(5,), stride=(1,), padding=(2,))
            (3): Conv1d(307, 100, kernel_size=(5,), stride=(1,), padding=(2,))
            (4): Conv1d(407, 100, kernel_size=(5,), stride=(1,), padding=(2,))
          )
        )
      )
      (1): DataParallel(
        (module): DenseSameShapeConv1d(
          (cnns): ModuleList(
            (0): Conv1d(7, 100, kernel_size=(5,), stride=(1,), padding=(2,))
            (1): Conv1d(107, 100, kernel_size=(5,), stride=(1,), padding=(2,))
            (2): Conv1d(207, 100, kernel_size=(5,), stride=(1,), padding=(2,))
            (3): Conv1d(307, 100, kernel_size=(5,), stride=(1,), padding=(2,))
            (4): Conv1d(407, 100, kernel_size=(5,), stride=(1,), padding=(2,))
          )
        )
      )
      (2): DataParallel(
        (module): DenseSameShapeConv1d(
          (cnns): ModuleList(
            (0): Conv1d(7, 100, kernel_size=(5,), stride=(1,), padding=(2,))
            (1): Conv1d(107, 100, kernel_size=(5,), stride=(1,), padding=(2,))
            (2): Conv1d(207, 100, kernel_size=(5,), stride=(1,), padding=(2,))
            (3): Conv1d(307, 100, kernel_size=(5,), stride=(1,), padding=(2,))
            (4): Conv1d(407, 100, kernel_size=(5,), stride=(1,), padding=(2,))
          )
        )
      )
      (3): DataParallel(
        (module): DenseSameShapeConv1d(
          (cnns): ModuleList(
            (0): Conv1d(7, 100, kernel_size=(5,), stride=(1,), padding=(2,))
            (1): Conv1d(107, 100, kernel_size=(5,), stride=(1,), padding=(2,))
            (2): Conv1d(207, 100, kernel_size=(5,), stride=(1,), padding=(2,))
            (3): Conv1d(307, 100, kernel_size=(5,), stride=(1,), padding=(2,))
            (4): Conv1d(407, 100, kernel_size=(5,), stride=(1,), padding=(2,))
          )
        )
      )
      (4): DataParallel(
        (module): DenseSameShapeConv1d(
          (cnns): ModuleList(
            (0): Conv1d(7, 100, kernel_size=(5,), stride=(1,), padding=(2,))
            (1): Conv1d(107, 100, kernel_size=(5,), stride=(1,), padding=(2,))
            (2): Conv1d(207, 100, kernel_size=(5,), stride=(1,), padding=(2,))
            (3): Conv1d(307, 100, kernel_size=(5,), stride=(1,), padding=(2,))
            (4): Conv1d(407, 100, kernel_size=(5,), stride=(1,), padding=(2,))
          )
        )
      )
      (5): DataParallel(
        (module): DenseSameShapeConv1d(
          (cnns): ModuleList(
            (0): Conv1d(7, 100, kernel_size=(5,), stride=(1,), padding=(2,))
            (1): Conv1d(107, 100, kernel_size=(5,), stride=(1,), padding=(2,))
            (2): Conv1d(207, 100, kernel_size=(5,), stride=(1,), padding=(2,))
            (3): Conv1d(307, 100, kernel_size=(5,), stride=(1,), padding=(2,))
            (4): Conv1d(407, 100, kernel_size=(5,), stride=(1,), padding=(2,))
          )
        )
      )
    )
    (dec2_cnns): ModuleList(
      (0): DataParallel(
        (module): DenseSameShapeConv1d(
          (cnns): ModuleList(
            (0): Conv1d(7, 100, kernel_size=(5,), stride=(1,), padding=(2,))
            (1): Conv1d(107, 100, kernel_size=(5,), stride=(1,), padding=(2,))
            (2): Conv1d(207, 100, kernel_size=(5,), stride=(1,), padding=(2,))
            (3): Conv1d(307, 100, kernel_size=(5,), stride=(1,), padding=(2,))
            (4): Conv1d(407, 100, kernel_size=(5,), stride=(1,), padding=(2,))
          )
        )
      )
      (1): DataParallel(
        (module): DenseSameShapeConv1d(
          (cnns): ModuleList(
            (0): Conv1d(7, 100, kernel_size=(5,), stride=(1,), padding=(2,))
            (1): Conv1d(107, 100, kernel_size=(5,), stride=(1,), padding=(2,))
            (2): Conv1d(207, 100, kernel_size=(5,), stride=(1,), padding=(2,))
            (3): Conv1d(307, 100, kernel_size=(5,), stride=(1,), padding=(2,))
            (4): Conv1d(407, 100, kernel_size=(5,), stride=(1,), padding=(2,))
          )
        )
      )
      (2): DataParallel(
        (module): DenseSameShapeConv1d(
          (cnns): ModuleList(
            (0): Conv1d(7, 100, kernel_size=(5,), stride=(1,), padding=(2,))
            (1): Conv1d(107, 100, kernel_size=(5,), stride=(1,), padding=(2,))
            (2): Conv1d(207, 100, kernel_size=(5,), stride=(1,), padding=(2,))
            (3): Conv1d(307, 100, kernel_size=(5,), stride=(1,), padding=(2,))
            (4): Conv1d(407, 100, kernel_size=(5,), stride=(1,), padding=(2,))
          )
        )
      )
      (3): DataParallel(
        (module): DenseSameShapeConv1d(
          (cnns): ModuleList(
            (0): Conv1d(7, 100, kernel_size=(5,), stride=(1,), padding=(2,))
            (1): Conv1d(107, 100, kernel_size=(5,), stride=(1,), padding=(2,))
            (2): Conv1d(207, 100, kernel_size=(5,), stride=(1,), padding=(2,))
            (3): Conv1d(307, 100, kernel_size=(5,), stride=(1,), padding=(2,))
            (4): Conv1d(407, 100, kernel_size=(5,), stride=(1,), padding=(2,))
          )
        )
      )
      (4): DataParallel(
        (module): DenseSameShapeConv1d(
          (cnns): ModuleList(
            (0): Conv1d(7, 100, kernel_size=(5,), stride=(1,), padding=(2,))
            (1): Conv1d(107, 100, kernel_size=(5,), stride=(1,), padding=(2,))
            (2): Conv1d(207, 100, kernel_size=(5,), stride=(1,), padding=(2,))
            (3): Conv1d(307, 100, kernel_size=(5,), stride=(1,), padding=(2,))
            (4): Conv1d(407, 100, kernel_size=(5,), stride=(1,), padding=(2,))
          )
        )
      )
      (5): DataParallel(
        (module): DenseSameShapeConv1d(
          (cnns): ModuleList(
            (0): Conv1d(7, 100, kernel_size=(5,), stride=(1,), padding=(2,))
            (1): Conv1d(107, 100, kernel_size=(5,), stride=(1,), padding=(2,))
            (2): Conv1d(207, 100, kernel_size=(5,), stride=(1,), padding=(2,))
            (3): Conv1d(307, 100, kernel_size=(5,), stride=(1,), padding=(2,))
            (4): Conv1d(407, 100, kernel_size=(5,), stride=(1,), padding=(2,))
          )
        )
      )
    )
    (dec1_outputs): ModuleList(
      (0): DataParallel(
        (module): Linear(in_features=100, out_features=5, bias=True)
      )
      (1): DataParallel(
        (module): Linear(in_features=100, out_features=5, bias=True)
      )
      (2): DataParallel(
        (module): Linear(in_features=100, out_features=5, bias=True)
      )
      (3): DataParallel(
        (module): Linear(in_features=100, out_features=5, bias=True)
      )
      (4): DataParallel(
        (module): Linear(in_features=100, out_features=5, bias=True)
      )
      (5): DataParallel(
        (module): Linear(in_features=100, out_features=5, bias=True)
      )
    )
    (dec2_outputs): ModuleList(
      (0): DataParallel(
        (module): Linear(in_features=100, out_features=5, bias=True)
      )
      (1): DataParallel(
        (module): Linear(in_features=100, out_features=5, bias=True)
      )
      (2): DataParallel(
        (module): Linear(in_features=100, out_features=5, bias=True)
      )
      (3): DataParallel(
        (module): Linear(in_features=100, out_features=5, bias=True)
      )
      (4): DataParallel(
        (module): Linear(in_features=100, out_features=5, bias=True)
      )
      (5): DataParallel(
        (module): Linear(in_features=100, out_features=1, bias=True)
      )
    )
  )
)
====> Epoch: 1 Average loss: 0.37156396  running time 130.22804641723633
====> Epoch: 1 Average loss: 0.19881876  running time 130.87167692184448
====> Epoch: 1 Average loss: 0.18496380  running time 129.56542897224426
====> Epoch: 1 Average loss: 0.18511589  running time 130.19506549835205
====> Epoch: 1 Average loss: 0.18418433  running time 134.9963023662567
…
