…
 34 28 11 35 23 52 10 31 60 57 71  1 32 75 14 83 19 29 49 85 86 69 20 82
 25 37 46 39 65 58 12 70 36 21  9 84 67 64 47 44] [47  7 57 72 17 71 56 15 25  6 33 29  9  5 18 49 64 28 37 78 53 60 63  4
 82 87 12 39 65 61 44 26 68 31 66  8 55 83 45 81 52 24 30 13 54 80 19 38
 76 32 16 51 70 11 40 74 22 75 84  1 79 41 14 27 85 20 46 67 35 62  2 59
 23 58 43 10 86 73 21 77 42  3 48 34 36 50  0 69]
Channel_AE(
  (enc): ENC_TurboCode()
  (dec): DEC_LargeCNN(
    (interleaver): Interleaver()
    (deinterleaver): DeInterleaver()
    (dec1_cnns): ModuleList(
      (0): DataParallel(
        (module): DenseSameShapeConv1d(
          (cnns): ModuleList(
            (0): Conv1d(7, 100, kernel_size=(5,), stride=(1,), padding=(2,))
            (1): Conv1d(107, 100, kernel_size=(5,), stride=(1,), padding=(2,))
            (2): Conv1d(207, 100, kernel_size=(5,), stride=(1,), padding=(2,))
            (3): Conv1d(307, 100, kernel_size=(5,), stride=(1,), padding=(2,))
            (4): Conv1d(407, 100, kernel_size=(5,), stride=(1,), padding=(2,))
          )
        )
      )
      (1): DataParallel(
        (module): DenseSameShapeConv1d(
          (cnns): ModuleList(
            (0): Conv1d(7, 100, kernel_size=(5,), stride=(1,), padding=(2,))
            (1): Conv1d(107, 100, kernel_size=(5,), stride=(1,), padding=(2,))
            (2): Conv1d(207, 100, kernel_size=(5,), stride=(1,), padding=(2,))
            (3): Conv1d(307, 100, kernel_size=(5,), stride=(1,), padding=(2,))
            (4): Conv1d(407, 100, kernel_size=(5,), stride=(1,), padding=(2,))
          )
        )
      )
      (2): DataParallel(
        (module): DenseSameShapeConv1d(
          (cnns): ModuleList(
            (0): Conv1d(7, 100, kernel_size=(5,), stride=(1,), padding=(2,))
            (1): Conv1d(107, 100, kernel_size=(5,), stride=(1,), padding=(2,))
            (2): Conv1d(207, 100, kernel_size=(5,), stride=(1,), padding=(2,))
            (3): Conv1d(307, 100, kernel_size=(5,), stride=(1,), padding=(2,))
            (4): Conv1d(407, 100, kernel_size=(5,), stride=(1,), padding=(2,))
          )
        )
      )
      (3): DataParallel(
        (module): DenseSameShapeConv1d(
          (cnns): ModuleList(
            (0): Conv1d(7, 100, kernel_size=(5,), stride=(1,), padding=(2,))
            (1): Conv1d(107, 100, kernel_size=(5,), stride=(1,), padding=(2,))
            (2): Conv1d(207, 100, kernel_size=(5,), stride=(1,), padding=(2,))
            (3): Conv1d(307, 100, kernel_size=(5,), stride=(1,), padding=(2,))
            (4): Conv1d(407, 100, kernel_size=(5,), stride=(1,), padding=(2,))
          )
        )
      )
      (4): DataParallel(
        (module): DenseSameShapeConv1d(
          (cnns): ModuleList(
            (0): Conv1d(7, 100, kernel_size=(5,), stride=(1,), padding=(2,))
            (1): Conv1d(107, 100, kernel_size=(5,), stride=(1,), padding=(2,))
            (2): Conv1d(207, 100, kernel_size=(5,), stride=(1,), padding=(2,))
            (3): Conv1d(307, 100, kernel_size=(5,), stride=(1,), padding=(2,))
            (4): Conv1d(407, 100, kernel_size=(5,), stride=(1,), padding=(2,))
          )
        )
      )
      (5): DataParallel(
        (module): DenseSameShapeConv1d(
          (cnns): ModuleList(
            (0): Conv1d(7, 100, kernel_size=(5,), stride=(1,), padding=(2,))
            (1): Conv1d(107, 100, kernel_size=(5,), stride=(1,), padding=(2,))
            (2): Conv1d(207, 100, kernel_size=(5,), stride=(1,), padding=(2,))
            (3): Conv1d(307, 100, kernel_size=(5,), stride=(1,), padding=(2,))
            (4): Conv1d(407, 100, kernel_size=(5,), stride=(1,), padding=(2,))
          )
        )
      )
    )
    (dec2_cnns): ModuleList(
      (0): DataParallel(
        (module): DenseSameShapeConv1d(
          (cnns): ModuleList(
            (0): Conv1d(7, 100, kernel_size=(5,), stride=(1,), padding=(2,))
            (1): Conv1d(107, 100, kernel_size=(5,), stride=(1,), padding=(2,))
            (2): Conv1d(207, 100, kernel_size=(5,), stride=(1,), padding=(2,))
            (3): Conv1d(307, 100, kernel_size=(5,), stride=(1,), padding=(2,))
            (4): Conv1d(407, 100, kernel_size=(5,), stride=(1,), padding=(2,))
          )
        )
      )
      (1): DataParallel(
        (module): DenseSameShapeConv1d(
          (cnns): ModuleList(
            (0): Conv1d(7, 100, kernel_size=(5,), stride=(1,), padding=(2,))
            (1): Conv1d(107, 100, kernel_size=(5,), stride=(1,), padding=(2,))
            (2): Conv1d(207, 100, kernel_size=(5,), stride=(1,), padding=(2,))
            (3): Conv1d(307, 100, kernel_size=(5,), stride=(1,), padding=(2,))
            (4): Conv1d(407, 100, kernel_size=(5,), stride=(1,), padding=(2,))
          )
        )
      )
      (2): DataParallel(
        (module): DenseSameShapeConv1d(
          (cnns): ModuleList(
            (0): Conv1d(7, 100, kernel_size=(5,), stride=(1,), padding=(2,))
            (1): Conv1d(107, 100, kernel_size=(5,), stride=(1,), padding=(2,))
            (2): Conv1d(207, 100, kernel_size=(5,), stride=(1,), padding=(2,))
            (3): Conv1d(307, 100, kernel_size=(5,), stride=(1,), padding=(2,))
            (4): Conv1d(407, 100, kernel_size=(5,), stride=(1,), padding=(2,))
          )
        )
      )
      (3): DataParallel(
        (module): DenseSameShapeConv1d(
          (cnns): ModuleList(
            (0): Conv1d(7, 100, kernel_size=(5,), stride=(1,), padding=(2,))
            (1): Conv1d(107, 100, kernel_size=(5,), stride=(1,), padding=(2,))
            (2): Conv1d(207, 100, kernel_size=(5,), stride=(1,), padding=(2,))
            (3): Conv1d(307, 100, kernel_size=(5,), stride=(1,), padding=(2,))
            (4): Conv1d(407, 100, kernel_size=(5,), stride=(1,), padding=(2,))
          )
        )
      )
      (4): DataParallel(
        (module): DenseSameShapeConv1d(
          (cnns): ModuleList(
            (0): Conv1d(7, 100, kernel_size=(5,), stride=(1,), padding=(2,))
            (1): Conv1d(107, 100, kernel_size=(5,), stride=(1,), padding=(2,))
            (2): Conv1d(207, 100, kernel_size=(5,), stride=(1,), padding=(2,))
            (3): Conv1d(307, 100, kernel_size=(5,), stride=(1,), padding=(2,))
            (4): Conv1d(407, 100, kernel_size=(5,), stride=(1,), padding=(2,))
          )
        )
      )
      (5): DataParallel(
        (module): DenseSameShapeConv1d(
          (cnns): ModuleList(
            (0): Conv1d(7, 100, kernel_size=(5,), stride=(1,), padding=(2,))
            (1): Conv1d(107, 100, kernel_size=(5,), stride=(1,), padding=(2,))
            (2): Conv1d(207, 100, kernel_size=(5,), stride=(1,), padding=(2,))
            (3): Conv1d(307, 100, kernel_size=(5,), stride=(1,), padding=(2,))
            (4): Conv1d(407, 100, kernel_size=(5,), stride=(1,), padding=(2,))
          )
        )
      )
    )
    (dec1_outputs): ModuleList(
      (0): DataParallel(
        (module): Linear(in_features=100, out_features=5, bias=True)
      )
      (1): DataParallel(
        (module): Linear(in_features=100, out_features=5, bias=True)
      )
      (2): DataParallel(
        (module): Linear(in_features=100, out_features=5, bias=True)
      )
      (3): DataParallel(
        (module): Linear(in_features=100, out_features=5, bias=True)
      )
      (4): DataParallel(
        (module): Linear(in_features=100, out_features=5, bias=True)
      )
      (5): DataParallel(
        (module): Linear(in_features=100, out_features=5, bias=True)
      )
    )
    (dec2_outputs): ModuleList(
      (0): DataParallel(
        (module): Linear(in_features=100, out_features=5, bias=True)
      )
      (1): DataParallel(
        (module): Linear(in_features=100, out_features=5, bias=True)
      )
      (2): DataParallel(
        (module): Linear(in_features=100, out_features=5, bias=True)
      )
      (3): DataParallel(
        (module): Linear(in_features=100, out_features=5, bias=True)
      )
      (4): DataParallel(
        (module): Linear(in_features=100, out_features=5, bias=True)
      )
      (5): DataParallel(
        (module): Linear(in_features=100, out_features=1, bias=True)
      )
    )
  )
)
====> Epoch: 1 Average loss: 0.54731099  running time 64.38294506072998
====> Epoch: 1 Average loss: 0.46722972  running time 64.1130998134613
====> Epoch: 1 Average loss: 0.45723611  running time 62.402084827423096
====> Epoch: 1 Average loss: 0.45510270  running time 60.702061891555786
====> Epoch: 1 Average loss: 0.45289387  running time 60.80400466918945
…
